src/data.pth (torch_old, 3766 bytes, 6 tensors)

l1.weight f4 [8, 46]
00000000: 39b4 a3be a7c1 ffbd 9b54 8fbd 8563 8dbd
00000010: 231d dcbe 8e55 bcbe 9cbf 9fbe d4a8 423f
00000020: 8f62 b93e bdc3 1f3f 5a2a f8be 2310 c7bd
00000030: dcce 8bbe 53d6 00bf ab2e f8be 3072 fcbe
00000040: 65e8 75be 1bff 493f 8f5d 03bf 10e5 683f
00000050: 6b5e 03bf 2e61 03bf f326 17bf a48f 053f
00000060: c2c4 3d3e a2c6 813e 05fb d3bd 61f9 8b3e
00000070: 8d2c f8be a163 d63e bc99 86be 2fc1 1d3f
00000080: adef dfbe a9d1 be3e ceb9 22bc 3545 743e
00000090: 722e 3d3f d001 e9bc 2efc 3b3f 165d e4bc
000000a0: 62d5 c5be 1f6e 233e e0cc f73e d19e c43e
000000b0: 5fc2 753e d8ff 203e 52cb 533e 3a1a b83c
000000c0: 9144 dd3d 39ad fdbd 531d ec3e 127d 313f
000000d0: 6df4 c4bd ad7e df3e 38eb c23d 4417 0a3f
000000e0: 54d6 f7be 6b99 ab3e e1ce 47be a1a9 0fbf
000000f0: 4a72 21bf d779 05bf 1199 35be b8a1 d23e
00000100: 29ba bebe 6c3f bfbe 1bc9 bebe d3da bebe
00000110: 3274 0fbf 18e1 aabd 3bda 34be 1540 9f3e
00000120: 518c aa3e 1324 043d 0b8a 213f 1d38 7e3e
00000130: 1428 3abe 8db6 f7bd 0731 1e3f 9092 65bd
00000140: c7c2 a73e 23ae 8b3e 95f2 393f 1ff1 f03e
00000150: 8758 b53e 4c98 26be d36c ccbd 8ce6 013f
00000160: f5c2 213f 573b 7e3e b45e 90be a342 403e
00000170: d34b 31bd 17aa a53e a14e 4dbd 00f3 bf3e
00000180: 18b6 96be 126d c5be 1002 b0bd 6aa2 d53e
00000190: 5a6a 52bd afa7 c93e 638e dc3e 60e0 a13d
000001a0: 100b d4bd 385c d03e 30a7 c43e b3eb 073f
000001b0: f1ca 00ba 2ea2 db3e 04f5 56be f543 07bf
000001c0: a1d4 00be 0e1f 5cbc bc54 a8bd 1f69 e73d
000001d0: c063 3abd adf8 0d3f bdde cc3c a024 d7bd
000001e0: f0cd 57be dd5e e9bc e81e 5f3e b6c8 c8be
000001f0: fb31 a0be 719a 3abe d138 3a3f 9547 9f3e
00000200: ceca 1c3f 8025 383f 7ea8 33bf 84c5 ffbd
00000210: bcab 13bd a0e4 4c3e a543 c03e 65ec 673d
00000220: 8fad 0cbe d328 4938 1c6d 9d3e 22e9 4dbe
00000230: 21df a23d 1901 c6be 9172 273f 1344 233f
00000240: e542 a1bd 612f e6be 260f e1bd 2308 563f
00000250: 993f e6be c35e d83e dc29 0ebe 8f42 03bf
00000260: a4e3 23bf 64b9 40bf 314d 60be 5b2c e6be
00000270: b174 e3be 1e08 94be 1e0b dfbe 118c d3be
00000280: 00e2 5abe 20e8 dfbc e00e 12be 9e9c 29be
00000290: 4829 a03d eec5 bcbd b8f1 103f 1056 cfbd
000002a0: 659e 6f3d b131 72be 4826 323f 897f f03e
000002b0: 8d36 383f edc9 45bd 6aa5 453f c345 383f
000002c0: 7da6 dfbe 95d7 813e 7478 2ebe ebe3 df3e
000002d0: 0d3e 1d3f c000 903e 81b7 40be 9166 71be
000002e0: 5050 d3bc eee9 5f3e fe67 f3be 7cc4 503e
000002f0: 930b d2be 52e3 1bbf 5fba 1bbe 56c9 713f
00000300: d64d 863e e6f2 033f d875 053f 07ff 34be
00000310: 821c 04be 7679 a93e cb27 da3e 8ba4 193f
00000320: 5d0e 26be e40b 653f dcb5 dbbe 44bb af3e
00000330: 9a25 d9be 2d00 0dbf 4753 afbe 1d37 2b3e
00000340: d486 093e 678c 0e3f 632c 5dbd 25af 0fbe
00000350: bfeb 02bf cb2d b23e 1fed 0c3d 730c 583e
00000360: 5385 0bbf 4938 113f e868 223f 328a 1e3f
00000370: a459 2a3f 263b f43e 1f5f 37bf 6fdd f0be
00000380: e3b8 39be 421c 083e 2937 083f be2e f43d
00000390: a9fa 6d3e 0bce 7c3c ecbd fe3d 047e f43d
000003a0: eb6d e0bd 4986 a73e a0ca 2b3f 3c27 1a3f
000003b0: e8c4 e63e f47e dd3e 84b5 1bbc 3c09 41bf
000003c0: 57d6 ed3e db5d 8e3e 98cf c43e 727e d23e
000003d0: 0377 cd3e 7080 af3e 6afd d43e 45ec dd3e
000003e0: 28d2 3d3f 7b05 47bf 3533 1c3f 1c66 073f
000003f0: 67f8 153f 97fd b0bd fcb6 423e d696 2b3e
-0.31973436 -0.12488108 -0.06998559 -0.069037475 -0.4299098 -0.36784023 -0.31200874 0.7603886
0.36208007 0.6240805 -0.48469812 -0.09719875 -0.2730626 -0.5032703 -0.48473105 -0.49305868
-0.24014433 0.78904885 -0.51314634 0.9097452 -0.51315945 -0.5132016 -0.59043807 0.52172303
0.18532088 0.25346857 -0.103506126 0.27338699 -0.4847149 0.41872886 -0.26289165 0.616229
-0.43737546 0.37269333 -0.009931995 0.23854525 0.73898995 -0.028443247 0.7343167 -0.027876418
-0.3863936 0.15959977 0.48398495 0.38402417 0.23999928 0.15722597 0.2068303 0.022473443
0.10804094 -0.12386555 0.46116123 0.6933147 -0.09616933 0.43651333 0.09517521 0.5394175
-0.48405707 0.33515486 -0.19512512 -0.5611821 -0.63065016 -0.5213904 -0.17734171 0.41139007
-0.37251404 -0.37353075 -0.37262806 -0.37276325 -0.56036675 -0.083437145 -0.17661373 0.31103578
0.33310178 0.032260966 0.6310126 0.24826093 -0.18179351 -0.12095366 0.6179356 -0.056047976
0.3276579 0.27281293 0.72635776 0.4705896 0.35419104 -0.16269034 -0.09981694 0.5074241
0.63188106 0.24827324 -0.28197253 0.1877542 -0.043285202 0.3235633 -0.050123814 0.37490082
-0.29435802 -0.38559777 -0.085941434 0.41725475 -0.051370956 0.39385745 0.43077382 0.07904124
-0.103536725 0.40695357 0.38408804 0.53094023 -0.0004913053 0.4289717 -0.20991904 -0.5283807
-0.12581111 -0.013435138 -0.08219287 0.11299347 -0.045505285 0.55457574 0.025008554 -0.105050325
-0.21074653 -0.028487617 0.21789134 -0.3921563 -0.31288132 -0.18222977 0.72742945 0.311093
0.61246955 0.7193222 -0.70178974 -0.12488845 -0.03605245 0.20009089 0.3755161 0.056621928
-0.13738082 4.7960155e-05 0.30747306 -0.20108464 0.07952715 -0.38672712 0.6540919 0.6377575
-0.07874087 -0.44958022 -0.109892175 0.83606166 -0.44970396 0.42259797 -0.13883156 -0.51273435
-0.6401923 -0.75282884 -0.21904446 -0.44955716 -0.44424966 -0.28912443 -0.4356317 -0.413178
-0.21375275 -0.027332366 -0.14263487 -0.16563651 0.07820374 -0.092174396 0.56618834 -0.10123837
0.058500666 -0.23651768 0.6958966 0.46972302 0.7195824 -0.048288275 0.77205527 0.7198145
-0.43681708 0.2535979 -0.17038137 0.43728575 0.61422807 0.28125572 -0.18820001 -0.23574282
-0.025795132 0.21866581 -0.47540277 0.20387453 -0.41024455 -0.6089374 -0.15207814 0.9444784
0.2623126 0.5154251 0.5213294 -0.1767541 -0.129015 0.3310048 0.42608485 0.600167
-0.16216417 0.8947127 -0.42912185 0.3432256 -0.424115 -0.55078393 -0.34243223 0.16720243
0.13430339 0.55682987 -0.05399741 -0.14031656 -0.5114097 0.34800562 0.034405824 0.21098499
-0.5450031 0.5672651 0.63441324 0.6192962 0.6654303 0.47701377 -0.7162952 -0.4704394
-0.18136935 0.1329203 0.5320917 0.11922978 0.2324015 0.015429984 0.124385685 0.11938098
-0.10958465 0.3271964 0.67106056 0.60216117 0.45072103 0.4326092 -0.009503726 -0.75404716
0.4645259 0.2780598 0.3843963 0.41112095 0.4012986 0.34277678 0.4159959 0.43344322
0.741488 -0.7774274 0.61015636 0.5289018 0.58582157 -0.086421184 0.19015115 0.16756758

l1.bias f4 [8]
00000000: b75f 033f 62c3 be3e afa6 333f 6826 e63e
00000010: a151 373f 8d0a 473f fed5 183f f559 803f
0.51317924 0.3725844 0.70176214 0.44951177 0.7160893 0.77750474 0.59701526 1.0027453

l2.weight f4 [8, 8]
00000000: 2c31 ab3e ea22 943f 37bb ac3f 869f 1c3f
00000010: 43a2 9c3f 900b c73e 17a4 91bf 66e8 d2be
00000020: 6adb 83bf a394 693e 4dd3 73be 0cfa 263f
00000030: b4d9 19bf 4682 9d3f 6ac2 f23e f63a 5f3f
00000040: 7518 953f b6b4 24bd 450d 0d3a ae89 50bf
00000050: 6c58 8d3f c4ef 17bf 226c 8b3f ef12 293f
00000060: e110 263d 59a4 653f 4e85 e0be 0b1c 2c3e
00000070: e292 ecbe 53b5 a63f 5134 62bf 05d8 b53f
00000080: 0452 823f 43a7 4b3f a9db 543e f914 763f
00000090: 4941 003f 8ea3 36bf 5ffb f13e 83f9 8abe
000000a0: e6d9 8fbf cc57 96bf a182 8f3f 556a 5abf
000000b0: b3c4 893f 2f5c cd3f 82d0 783f 4e9f 783e
000000c0: 4430 a0bd ed8f 643c 3b56 9cbe 9e29 7bbe
000000d0: 6be2 0a3e c555 04bf dcf7 b1bc 755d 313e
000000e0: a39e 88bf 18d5 e63e afd8 773f df0c a63f
000000f0: 526c cc3e 0f65 083f 34b9 333f 1866 8abf
0.33435953 1.1573155 1.3494633 0.61180913 1.2237018 0.3887601 -1.1378201 -0.4119293
-1.0301335 0.22810607 -0.23811074 0.6522529 -0.60097814 1.2305381 0.4741395 0.8719934
1.1648089 -0.040211402 0.00053807005 -0.8146008 1.1042609 -0.5935023 1.0892375 0.66044515
0.04054344 0.897039 -0.43851703 0.16807573 -0.46205813 1.3024086 -0.8836108 1.4206549
1.0181279 0.79552096 0.20786919 0.9612575 0.5009962 -0.71343315 0.47262093 -0.27143487
-1.1238372 -1.1745543 1.121174 -0.853185 1.0763153 1.6043757 0.9719316 0.2427952
-0.07821706 0.01395033 -0.3053454 -0.24527594 0.13562934 -0.51693374 -0.021724634 0.17320807
-1.0673412 0.45084453 0.9681501 1.2972678 0.39926392 0.53279203 0.7020447 -1.0812407

l2.bias f4 [8]
00000000: 0ce9 6b3d 7a7b 053f 8e95 1e3f 647b 433f
00000010: fbf1 933e df6d 183f a2cb d7be 814c 933e
0.057595298 0.52141535 0.6194695 0.76360154 0.28895554 0.5954265 -0.42147547 0.28769305

l3.weight f4 [7, 8]
00000000: e86b 4c3f f7eb 52bf b803 34bf 5e3a c3bf
00000010: 5ead 563f 523d 46bf f72e c93d 3983 a73e
00000020: d457 3dbd 1a31 96be 29d6 13be 9744 e9bf
00000030: a380 39bf 0ff5 6e3f f8de 99be 858b 3a3f
00000040: 9765 0f3f 3620 4dbf 333e c23d ecc6 65bd
00000050: 666a 17be b5ad 5c3e 91ae c7bd 50e7 8dbf
00000060: 9940 cfbf 30eb 173f 3642 5fbf 9111 b63e
00000070: 91c0 8fbf 3fd3 8a3f 70c9 a23d 4c30 07bf
00000080: 5959 99bf e0c9 71bf 6010 8d3f 9a77 c5bf
00000090: 462c 703f 62e3 aabe 582e 4fbd 86f9 c8be
000000a0: 55eb 4a3e 4eb0 1a3f 2727 c4bf bf8d 443e
000000b0: 57c1 3139 3ca5 2ebf 0b39 74be b3c7 f33e
000000c0: 63e0 b2bf c26c 083e 5551 e93e db32 6d3f
000000d0: 0131 98be 95d3 d1bf 8bca 17be a3bc 7dbe
0.7985215 -0.82391304 -0.70318174 -1.5252187 0.8385829 -0.7743732 0.09823411 0.32717302
-0.046226338 -0.29334337 -0.14437164 -1.8224057 -0.7246191 0.9334268 -0.30052924 0.7286914
0.5601439 -0.80127275 0.0948452 -0.05609791 -0.14786682 0.21550639 -0.09750093 -1.1086216
-1.6191589 0.5934324 -0.87210405 0.35560277 -1.1230642 1.0845717 0.079485774 -0.5280807
-1.1980392 -0.9444866 1.1020622 -1.5427125 0.93817556 -0.33376604 -0.050581306 -0.3925287
0.19816335 0.6042527 -1.5324448 0.19194697 0.0001695206 -0.6822088 -0.23849885 0.47613296
-1.3974727 0.13322738 0.45569864 0.92655724 -0.29724887 -1.6392695 -0.14823358 -0.2477899

l3.bias f4 [7]
00000000: 083f 8cbe 2457 47be 6247 afbd fb6b 0ebd
00000010: 2afa b43e 6587 03be 18e5 cc3e
-0.2739184 -0.19466835 -0.08558537 -0.034770947 0.3534711 -0.12844618 0.40018535
